…
test_net: "srcnn_test.prototxt"
test_iter: 1
test_interval: 20
base_lr: 0.0001
display: 200
max_iter: 10000
lr_policy: "inv"
gamma: 0.0001
power: 0.75
momentum: 0.9
weight_decay: 0.0005
snapshot: 50000
snapshot_prefix: "srcnn"
solver_mode: GPU
test_compute_loss: true
I0917 12:41:44.111316  1679 solver.cpp:63] Creating training net from train_net file: srcnn_train.prototxt
I0917 12:41:44.111590  1679 net.cpp:38] Initializing net from parameters: 
name: "SRCNN"
layers {
  top: "data"
  top: "label"
  name: "hdf5"
  type: HDF5_DATA
  hdf5_data_param {
    source: "train.sources"
    batch_size: 128
  }
}
layers {
  bottom: "data"
  top: "conv1"
  name: "conv1"
  type: CONVOLUTION
  blobs_lr: 1
  blobs_lr: 2
  convolution_param {
    num_output: 64
    kernel_size: 9
    stride: 1
    weight_filler {
      type: "xavier"
    }
    bias_filler {
      type: "constant"
    }
  }
}
layers {
  bottom: "conv1"
  top: "conv1"
  name: "relu1"
  type: RELU
}
layers {
  bottom: "conv1"
  top: "conv2"
  name: "conv2"
  type: CONVOLUTION
  blobs_lr: 1
  blobs_lr: 2
  convolution_param {
    num_output: 32
    kernel_size: 1
    stride: 1
    weight_filler {
      type: "xavier"
    }
    bias_filler {
      type: "constant"
    }
  }
}
layers {
  bottom: "conv2"
  top: "conv2"
  name: "relu2"
  type: RELU
}
layers {
  bottom: "conv2"
  top: "conv3"
  name: "conv3"
  type: CONVOLUTION
  blobs_lr: 0.1
  blobs_lr: 0.2
  convolution_param {
    num_output: 1
    kernel_size: 5
    stride: 1
    weight_filler {
      type: "xavier"
    }
    bias_filler {
      type: "constant"
    }
  }
}
layers {
  bottom: "conv3"
  top: "flat"
  name: "flat"
  type: FLATTEN
}
layers {
  bottom: "flat"
  bottom: "label"
  name: "loss"
  type: EUCLIDEAN_LOSS
}
state {
  phase: TRAIN
}
I0917 12:41:44.111650  1679 net.cpp:66] Creating Layer hdf5
I0917 12:41:44.111665  1679 net.cpp:290] hdf5 -> data
I0917 12:41:44.111682  1679 net.cpp:290] hdf5 -> label
I0917 12:41:44.111698  1679 hdf5_data_layer.cpp:58] Loading filename from train.sources
I0917 12:41:44.111757  1679 hdf5_data_layer.cpp:70] Number of files: 1
I0917 12:41:44.111769  1679 hdf5_data_layer.cpp:29] Loading HDF5 file../../data/srcnn/train_batch_1.h5
I0917 12:41:44.239182  1679 hdf5_data_layer.cpp:49] Successully loaded 12800 rows
I0917 12:41:44.239234  1679 hdf5_data_layer.cpp:82] output data size: 128,1,33,33
I0917 12:41:44.239254  1679 net.cpp:83] Top shape: 128 1 33 33 (139392)
I0917 12:41:44.239264  1679 net.cpp:83] Top shape: 128 441 1 1 (56448)
I0917 12:41:44.239271  1679 net.cpp:130] hdf5 does not need backward computation.
I0917 12:41:44.239287  1679 net.cpp:66] Creating Layer conv1
I0917 12:41:44.239295  1679 net.cpp:329] conv1 <- data
I0917 12:41:44.239307  1679 net.cpp:290] conv1 -> conv1
I0917 12:41:44.239722  1679 net.cpp:83] Top shape: 128 64 25 25 (5120000)
I0917 12:41:44.239747  1679 net.cpp:125] conv1 needs backward computation.
I0917 12:41:44.239756  1679 net.cpp:66] Creating Layer relu1
I0917 12:41:44.239763  1679 net.cpp:329] relu1 <- conv1
I0917 12:41:44.239771  1679 net.cpp:280] relu1 -> conv1 (in-place)
I0917 12:41:44.239786  1679 net.cpp:83] Top shape: 128 64 25 25 (5120000)
I0917 12:41:44.239796  1679 net.cpp:125] relu1 needs backward computation.
I0917 12:41:44.239804  1679 net.cpp:66] Creating Layer conv2
I0917 12:41:44.239811  1679 net.cpp:329] conv2 <- conv1
I0917 12:41:44.239820  1679 net.cpp:290] conv2 -> conv2
I0917 12:41:44.239848  1679 net.cpp:83] Top shape: 128 32 25 25 (2560000)
I0917 12:41:44.239861  1679 net.cpp:125] conv2 needs backward computation.
I0917 12:41:44.239868  1679 net.cpp:66] Creating Layer relu2
I0917 12:41:44.239876  1679 net.cpp:329] relu2 <- conv2
I0917 12:41:44.239882  1679 net.cpp:280] relu2 -> conv2 (in-place)
I0917 12:41:44.239892  1679 net.cpp:83] Top shape: 128 32 25 25 (2560000)
I0917 12:41:44.239898  1679 net.cpp:125] relu2 needs backward computation.
I0917 12:41:44.239905  1679 net.cpp:66] Creating Layer conv3
I0917 12:41:44.239923  1679 net.cpp:329] conv3 <- conv2
I0917 12:41:44.239941  1679 net.cpp:290] conv3 -> conv3
I0917 12:41:44.239960  1679 net.cpp:83] Top shape: 128 1 21 21 (56448)
I0917 12:41:44.239972  1679 net.cpp:125] conv3 needs backward computation.
I0917 12:41:44.239982  1679 net.cpp:66] Creating Layer flat
I0917 12:41:44.239990  1679 net.cpp:329] flat <- conv3
I0917 12:41:44.239998  1679 net.cpp:290] flat -> flat
I0917 12:41:44.240010  1679 net.cpp:83] Top shape: 128 441 1 1 (56448)
I0917 12:41:44.240018  1679 net.cpp:125] flat needs backward computation.
I0917 12:41:44.240025  1679 net.cpp:66] Creating Layer loss
I0917 12:41:44.240033  1679 net.cpp:329] loss <- flat
I0917 12:41:44.240041  1679 net.cpp:329] loss <- label
I0917 12:41:44.240051  1679 net.cpp:125] loss needs backward computation.
I0917 12:41:44.240062  1679 net.cpp:402] Collecting Learning Rate and Weight Decay.
I0917 12:41:44.240072  1679 net.cpp:167] Network initialization done.
I0917 12:41:44.240078  1679 net.cpp:168] Memory required for data: 0
I0917 12:41:44.240227  1679 solver.cpp:156] Creating testing net (#0) specified by test_net file: srcnn_test.prototxt
I0917 12:41:44.240303  1679 net.cpp:38] Initializing net from parameters: 
name: "SRCNN"
layers {
  top: "data"
  top: "label"
  name: "hdf5"
  type: HDF5_DATA
  hdf5_data_param {
    source: "test.sources"
    batch_size: 576
  }
}
layers {
  bottom: "data"
  top: "conv1"
  name: "conv1"
  type: CONVOLUTION
  blobs_lr: 1
  blobs_lr: 2
  convolution_param {
    num_output: 64
    kernel_size: 9
    stride: 1
    weight_filler {
      type: "xavier"
    }
    bias_filler {
      type: "constant"
    }
  }
}
layers {
  bottom: "conv1"
  top: "conv1"
  name: "relu1"
  type: RELU
}
layers {
  bottom: "conv1"
  top: "conv2"
  name: "conv2"
  type: CONVOLUTION
  blobs_lr: 1
  blobs_lr: 2
  convolution_param {
    num_output: 32
    kernel_size: 1
    stride: 1
    weight_filler {
      type: "xavier"
    }
    bias_filler {
      type: "constant"
    }
  }
}
layers {
  bottom: "conv2"
  top: "conv2"
  name: "relu2"
  type: RELU
}
layers {
  bottom: "conv2"
  top: "conv3"
  name: "conv3"
  type: CONVOLUTION
  blobs_lr: 1
  blobs_lr: 2
  convolution_param {
    num_output: 1
    kernel_size: 5
    stride: 1
    weight_filler {
      type: "xavier"
    }
    bias_filler {
      type: "constant"
    }
  }
}
layers {
  bottom: "conv3"
  top: "flat"
  name: "flat"
  type: FLATTEN
}
layers {
  bottom: "flat"
  bottom: "label"
  top: "loss"
  name: "loss"
  type: EUCLIDEAN_LOSS
}
state {
  phase: TEST
}
I0917 12:41:44.240339  1679 net.cpp:66] Creating Layer hdf5
I0917 12:41:44.240350  1679 net.cpp:290] hdf5 -> data
I0917 12:41:44.240360  1679 net.cpp:290] hdf5 -> label
I0917 12:41:44.240370  1679 hdf5_data_layer.cpp:58] Loading filename from test.sources
I0917 12:41:44.240389  1679 hdf5_data_layer.cpp:70] Number of files: 1
I0917 12:41:44.240398  1679 hdf5_data_layer.cpp:29] Loading HDF5 file../../data/srcnn/test_batch_1.h5
I0917 12:41:44.246619  1679 hdf5_data_layer.cpp:49] Successully loaded 576 rows
I0917 12:41:44.246654  1679 hdf5_data_layer.cpp:82] output data size: 576,1,33,33
I0917 12:41:44.246661  1679 net.cpp:83] Top shape: 576 1 33 33 (627264)
I0917 12:41:44.246669  1679 net.cpp:83] Top shape: 576 441 1 1 (254016)
I0917 12:41:44.246675  1679 net.cpp:130] hdf5 does not need backward computation.
I0917 12:41:44.246686  1679 net.cpp:66] Creating Layer conv1
I0917 12:41:44.246693  1679 net.cpp:329] conv1 <- data
I0917 12:41:44.246702  1679 net.cpp:290] conv1 -> conv1
I0917 12:41:44.246757  1679 net.cpp:83] Top shape: 576 64 25 25 (23040000)
I0917 12:41:44.246772  1679 net.cpp:125] conv1 needs backward computation.
I0917 12:41:44.246783  1679 net.cpp:66] Creating Layer relu1
I0917 12:41:44.246788  1679 net.cpp:329] relu1 <- conv1
I0917 12:41:44.246796  1679 net.cpp:280] relu1 -> conv1 (in-place)
I0917 12:41:44.246808  1679 net.cpp:83] Top shape: 576 64 25 25 (23040000)
I0917 12:41:44.246814  1679 net.cpp:125] relu1 needs backward computation.
I0917 12:41:44.246820  1679 net.cpp:66] Creating Layer conv2
I0917 12:41:44.246835  1679 net.cpp:329] conv2 <- conv1
I0917 12:41:44.246853  1679 net.cpp:290] conv2 -> conv2
I0917 12:41:44.246881  1679 net.cpp:83] Top shape: 576 32 25 25 (11520000)
I0917 12:41:44.246892  1679 net.cpp:125] conv2 needs backward computation.
I0917 12:41:44.246901  1679 net.cpp:66] Creating Layer relu2
I0917 12:41:44.246907  1679 net.cpp:329] relu2 <- conv2
I0917 12:41:44.246915  1679 net.cpp:280] relu2 -> conv2 (in-place)
I0917 12:41:44.246923  1679 net.cpp:83] Top shape: 576 32 25 25 (11520000)
I0917 12:41:44.246929  1679 net.cpp:125] relu2 needs backward computation.
I0917 12:41:44.246937  1679 net.cpp:66] Creating Layer conv3
I0917 12:41:44.246944  1679 net.cpp:329] conv3 <- conv2
I0917 12:41:44.246953  1679 net.cpp:290] conv3 -> conv3
I0917 12:41:44.246971  1679 net.cpp:83] Top shape: 576 1 21 21 (254016)
I0917 12:41:44.246984  1679 net.cpp:125] conv3 needs backward computation.
I0917 12:41:44.246990  1679 net.cpp:66] Creating Layer flat
I0917 12:41:44.246997  1679 net.cpp:329] flat <- conv3
I0917 12:41:44.247004  1679 net.cpp:290] flat -> flat
I0917 12:41:44.247014  1679 net.cpp:83] Top shape: 576 441 1 1 (254016)
I0917 12:41:44.247021  1679 net.cpp:125] flat needs backward computation.
I0917 12:41:44.247028  1679 net.cpp:66] Creating Layer loss
I0917 12:41:44.247035  1679 net.cpp:329] loss <- flat
I0917 12:41:44.247042  1679 net.cpp:329] loss <- label
I0917 12:41:44.247051  1679 net.cpp:290] loss -> loss
I0917 12:41:44.247061  1679 net.cpp:83] Top shape: 1 1 1 1 (1)
I0917 12:41:44.247069  1679 net.cpp:125] loss needs backward computation.
I0917 12:41:44.247074  1679 net.cpp:156] This network produces output loss
I0917 12:41:44.247083  1679 net.cpp:402] Collecting Learning Rate and Weight Decay.
I0917 12:41:44.247093  1679 net.cpp:167] Network initialization done.
I0917 12:41:44.247098  1679 net.cpp:168] Memory required for data: 0
I0917 12:41:44.247117  1679 solver.cpp:46] Solver scaffolding done.
…
